NN/model-Re-10000.pth (torch, 15118 bytes, 6 tensors)

weight f4 [50, 2]
000000 60 5d d1 bd 60 05 4a 3d 3c 37 2a 3d ba 99 08 3f
       -0.10222888 0.049321532 0.04155658 0.5335957
000010 6c 54 6e be c0 fa 42 be df 19 a3 3e 72 dd ad 3e
       -0.23274392 -0.19040966 0.31855676 0.33958012
000020 10 8f 81 3d dd df e6 be c4 4a f3 bd db b8 00 3f
       0.06326115 -0.4509267 -0.11879495 0.5028207
000030 0c 9b aa 3d 24 46 b3 3e 44 80 2f bf 1f 4a f7 3e
       0.08330354 0.3501445 -0.6855509 0.48298737
000040 44 62 0d bf 61 cf 21 3f 46 64 85 be 2a c3 84 be
       -0.55228066 0.6320706 -0.26053065 -0.25930148
000050 31 ee a1 3e ec fb c1 3e 40 67 a4 3e 56 14 28 3f
       0.31627038 0.37887514 0.32110023 0.6565603
000060 92 15 d0 bd dd d4 cf be 78 3b e3 3e 0f 5d b8 3e
       -0.10160364 -0.4059209 0.4438131 0.36008498
000070 3c ed 5e be 5c cb dc 3d 90 3e 2a 3f f0 5d a8 3e
       -0.21770185 0.10780975 0.6650171 0.3288417
000080 3e 7a 9b be 21 f0 20 3f 5f e7 2c 3f 24 2a e2 be
       -0.303667 0.6286641 0.67540544 -0.44172776
000090 1e 9e 3d 3e 5e de 2e bf 90 f5 11 3e aa 89 82 3e
       0.18517348 -0.68308055 0.14253831 0.25495654
0000a0 96 f5 23 3e 12 7b 17 3f 08 52 ac bd 70 80 51 3e
       0.16011652 0.59172165 -0.08414084 0.20459151
0000b0 c7 d0 4d be f5 49 cb be 62 3e 77 be 2c e7 22 bf
       -0.20099173 -0.39704862 -0.24144891 -0.6363399
0000c0 f4 62 20 3e 5d 0d 0b 3f 3c 18 8a be 9c ce e1 be
       0.15662748 0.54317266 -0.26971614 -0.44102943
0000d0 d4 f7 ae be 3a 0d 15 bf 9f ac b3 be ea 45 d3 bd
       -0.34173453 -0.5822331 -0.35092637 -0.103160694
0000e0 30 63 af be c2 7b d7 3a a2 f1 82 3d 70 b5 04 3f
       -0.34255362 0.0016440081 0.06393744 0.5183935
0000f0 f9 9f b9 be b6 4d cd be b0 85 02 3f 67 f1 2e 3f
       -0.36254862 -0.4009835 0.5098524 0.683371
000100 38 4f 0c bf dc a5 94 3e de 17 97 be bb 14 15 bf
       -0.5480838 0.2903279 -0.29510397 -0.5823476
000110 4a f6 1d bf f0 44 37 3e bc e3 46 be eb 8e b2 be
       -0.6170393 0.17897391 -0.19422811 -0.34874663
000120 0a 15 06 3f 86 02 76 3e 19 9b 17 bf e7 7b 03 3f
       0.52375853 0.240244 -0.59221035 0.51360935
000130 7f e0 5e 3e 3d 00 03 bf cc 7b 08 3e 38 20 ec 3d
       0.21765326 -0.5117224 0.13328475 0.11529583
000140 92 4e 8d 3e 1f d0 94 3e 61 51 82 3e b3 4f 0b bf
       0.27599007 0.29065034 0.25452712 -0.54418486
000150 60 e0 13 bf 7e dd db 3e bc 47 11 3f 69 3d 18 bf
       -0.57764244 0.42942423 0.5675008 -0.59468704
000160 e1 50 d3 be 99 7f 2a bf 1b ec 7c be ed 75 f1 bd
       -0.41272643 -0.6660095 -0.24699442 -0.11790071
000170 87 7d c2 be f7 46 25 3f 9f 54 65 be 06 75 04 3f
       -0.37986395 0.6456141 -0.22395562 0.51741064
000180 75 5f 30 3f 58 82 25 3f b5 00 e9 3e 91 3c 32 3f
       0.68895656 0.64652014 0.45508352 0.69623667

bias f4 [50]
000000 5b 71 ff be c2 40 e2 3d 10 b9 96 bd e1 5f 83 3e
       -0.4989117 0.11047508 -0.073595166 0.25659087
000010 39 5d 29 bf ab eb 2d 3f e7 1e 2e be 6e e1 c7 3d
       -0.6615787 0.67937726 -0.17003976 0.09759794
000020 ed e0 f3 3e c8 35 a7 bd 8e 92 8b 3d 9d 63 cd be
       0.47632542 -0.08164555 0.068150625 -0.4011506
000030 3d ba 34 3f 06 dd b8 bd 38 3e 08 3f 51 ae 91 3d
       0.7059668 -0.09026532 0.5321994 0.07113326
000040 99 de 22 be c9 d9 0e be ee e5 f3 3e 39 61 b6 3d
       -0.15905227 -0.13950266 0.4763636 0.089052625
000050 6f 9d 9c 3e 4f af 26 be 79 20 3c 3e 0e 3c cd be
       0.30588862 -0.16277812 0.18371762 -0.4008488
000060 f0 d6 14 bf 9e 1f 2d bf cb df 22 3f c1 82 99 3e
       -0.5814047 -0.6762637 0.6362273 0.2998257
000070 1e 4e 11 3f ac 7e 32 bd 00 80 b5 3c a0 d5 b1 3d
       0.5675982 -0.043577835 0.022155762 0.08683324
000080 b4 d3 23 bf 64 f1 56 be da 80 c5 be 00 be 50 be
       -0.6399491 -0.2099052 -0.38574868 -0.20384979
000090 5a b0 ff be d4 cb 19 3f 12 f7 ab 3e 0c 6d c0 be
       -0.49939233 0.6007664 0.33586937 -0.37583196
0000a0 1f 44 95 be e6 34 0b 3f 93 53 03 bf 4e 53 39 be
       -0.29153535 0.5437759 -0.512994 -0.18098184
0000b0 2a 7e 10 3f ed ab 8e 3e 79 e6 47 be 18 38 04 bd
       0.5644251 0.27865544 -0.19521512 -0.032280058
0000c0 fb 4d ec 3e 7e d1 42 be
       0.46153244 -0.19025227

weight f4 [50, 50]
000000 80 13 1f 3c d0 d2 c0 bd 70 b9 21 3d 48 2c 5f 3d
       0.009709239 -0.09415209 0.039483488 0.05448559
000010 f6 e5 e2 3d 70 b3 e4 3d e3 96 0d be f1 4c ee 3d
       0.11079018 0.111670375 -0.1382709 0.11635769
000020 d9 e6 e5 3d ba d5 f4 bd 04 6d 0c bd e4 18 e2 3d
       0.11225671 -0.119548276 -0.034283653 0.11039904
000030 5b f4 34 bd 6b 79 1e 3d 92 42 ed bc 80 fe 90 3d
       -0.044178348 0.038690012 -0.028962407 0.07079792
000040 d2 bf 8c bd 82 ab fe 3d fd 8b b8 bc 8b f2 84 3d
       -0.06872524 0.12435056 -0.02252769 0.06491574
000050 a4 86 27 3b 04 8b 01 3e 3f 8b 82 3c 1c 0f c2 3d
       0.002556243 0.12650687 0.015935538 0.09475538
000060 16 64 27 bd 80 6f 13 3c d2 78 0a 3d e9 80 c5 3d
       -0.040866934 0.008998752 0.03380663 0.09643728
000070 64 eb 0c 3e cd 2c c6 bd 9e 6a e7 3d 56 60 0d be
       0.1376167 -0.09676514 0.112996325 -0.1380628
000080 60 22 1f 3c 42 03 68 bd 80 6f 18 bb 3a f5 93 bd
       0.0097127855 -0.056643732 -0.0023259819 -0.07224508
000090 60 bc b8 3d 9e a2 cf bd 46 20 e9 3d 6c 5d a5 3d
       0.09020305 -0.10138439 0.11383109 0.080744594
0000a0 fe d3 03 3c 56 29 f3 3c 08 fb 98 3c 6b ce e7 bc
       0.008046148 0.029682796 0.018674389 -0.02829667
0000b0 5a 19 d5 bd 4c 08 8a 3d 08 91 b2 bd 68 89 25 bd
       -0.10405226 0.06739864 -0.08719069 -0.040414244
0000c0 aa f9 01 3e d9 40 b1 3d 1c ff 82 3d 5e af 8e 3d
       0.12692896 0.08654947 0.063963145 0.069670424
0000d0 00 48 09 39 03 da e4 bd 3e 81 cc 3d 3f 30 65 3d
       0.0001309216 -0.11174395 0.099855885 0.055954214
0000e0 d9 3e dc bd 4a 29 b1 bc 43 ac 99 bd 0e fa 12 bd
       -0.10754175 -0.021626133 -0.075035594 -0.035883002
0000f0 da 0e 91 bd af 11 2d bd 6c 47 2a 3d fc 07 af bd
       -0.07082911 -0.042253193 0.04157202 -0.08546445
000100 46 fc e1 bd 18 41 4a bd 92 d3 f7 3c 46 f0 17 3c
       -0.110344455 -0.049378484 0.030252252 0.009273594
000110 ce 63 9b bc 90 0c f5 bd 88 cd 1f bd dc e4 40 3d
       -0.018968489 -0.11965287 -0.03901437 0.047093257
000120 20 b3 ce 3d b2 63 7d bd 9e f3 5f bd 40 d8 95 3c
       0.10092759 -0.061862655 -0.05467569 0.018291593
000130 4a 63 17 3e 9b 5c 98 bc c2 64 0e 3e 81 97 07 bd
       0.1478397 -0.018598845 0.13905624 -0.03310347
000140 98 a6 6e 3d d8 a5 0a 3e 70 43 e0 3c 08 cb 7b 3d
       0.058264345 0.13539827 0.027375907 0.061472923
000150 92 b9 dc 3d 42 72 c4 bd 6e 7a 0e be c0 2e b9 3d
       0.10777582 -0.095921054 -0.1391389 0.0904212
000160 00 42 b4 3c 62 1c e6 3d 4b 45 03 3e d7 02 1b 3e
       0.022004128 0.11235882 0.12819402 0.15137802
000170 98 4b 0e be e7 97 4b bd 53 7a 91 bd 0e 82 ed bc
       -0.13896024 -0.049705412 -0.071034096 -0.028992679
000180 e6 72 7c bc 40 d5 e2 bb e6 20 d5 bd 72 43 ca bd
       -0.015408253 -0.006922394 -0.104066655 -0.098761454
000190 d8 8c bd 3c 97 93 a2 bd 00 7e be bd bc 5a 8a 3d
       0.023138449 -0.07938307 -0.09301376 0.067555875
0001a0 d6 76 d8 3d d8 e0 fb 3c e2 5d 08 be fa ce 85 bc
       0.10569541 0.030746862 -0.13317063 -0.016334046
0001b0 fb 1e 7e 3d 1a 91 10 bd 6a aa 08 3e 52 ba dd bd
       0.062041264 -0.03529463 0.13346258 -0.108265534
0001c0 7f 0e 01 bd ab ec 13 3c 68 b5 ac 3d ac ad 0b be
       -0.031507965 0.009028594 0.08433038 -0.1364047
0001d0 62 74 1e bd c0 76 e1 3b b2 c8 c3 bd f9 bd fd bc
       -0.03868521 0.006880611 -0.09559764 -0.030974375
0001e0 62 71 3b 3d 50 13 09 be 65 ff 04 3e 00 c8 fb bb
       0.045762427 -0.13386273 0.1298805 -0.007683754
0001f0 27 f6 ef bd 30 cb 7a bc 9f d3 07 be 13 61 d5 3d
       -0.11716872 -0.015307233 -0.13264321 0.10418906
000200 49 98 b0 3c c4 2f f2 3b 54 d5 91 3d d3 ab bb 3d
       0.02155699 0.007390948 0.07120767 0.09163632
000210 17 c0 00 be 98 ab c3 3d 4a af e0 3d 78 d9 73 3d
       -0.12573276 0.09554213 0.10970934 0.059533566
000220 ec 10 c6 3d 89 e6 5f 3d 60 8f f6 bd f4 25 60 3d
       0.09671196 0.054663215 -0.12039065 0.054723695
000230 ad b1 8b 3d aa d4 08 3e fe f9 a6 bd 40 36 f1 bb
       0.06820998 0.13362375 -0.08153151 -0.0073612034
000240 ce 24 a1 3d b3 d3 6f bd 78 d3 0d 3d 1d 0b b6 bc
       0.07868348 -0.0585515 0.0346255 -0.022222096
000250 4d ff d6 bd 27 eb 94 3c 28 0d a9 bd e7 4c 37 3d
       -0.104979135 0.018178536 -0.082544625 0.044751074
000260 a5 fc 0a 3e 2e af 20 bd e8 00 0b be b0 39 85 3d
       0.13572939 -0.039229564 -0.13574564 0.06505144
000270 fc c3 1b 3d 40 eb 95 bd 54 da ea bd f2 43 98 bd
       0.038028702 -0.07320261 -0.11467424 -0.074348345
000280 b8 66 72 3d 19 19 e3 bd 59 c4 e8 3d ac 56 c4 bd
       0.05917999 -0.110887714 0.11365575 -0.09586844
000290 34 5b b7 bd 23 55 92 3c 36 81 15 bd 3b 68 ad bd
       -0.089529425 0.017862862 -0.03650018 -0.08467146
0002a0 37 9c 75 bd e4 e1 b9 3d a0 10 00 3e 44 14 de bc
       -0.05996343 0.09076288 0.12506342 -0.027109273
0002b0 0b 31 8a 3d 2e 50 4e bd b2 e9 f1 3d 64 2b 2f 3d
       0.067476355 -0.050369434 0.11812152 0.04276599
0002c0 21 f6 b4 3d cc 06 84 bd 65 c2 f7 bd 10 bc b5 3c
       0.08836008 -0.06446609 -0.12097625 0.022184402
0002d0 e0 56 d0 3d dc ed 8d 3d 54 03 b0 bc 00 24 65 ba
       0.1017282 0.06930134 -0.021485962 -0.0008741021
0002e0 b2 35 34 bd 02 0b b2 3d 8b 49 e6 bd 78 41 c7 3c
       -0.04399652 0.08693506 -0.11244496 0.02432321
0002f0 d9 0a cb bd f4 f2 cc 3d c9 e3 d2 bd f3 90 fb bd
       -0.099141784 0.10007277 -0.10297353 -0.12283506
000300 97 a5 88 bd de 47 05 be 39 bd 2f bd 88 e1 a1 3d
       -0.06672209 -0.13015696 -0.042905066 0.07904345
000310 81 dc d8 bd 54 57 de 3c 66 20 dd 3d e5 8c e2 bd
       -0.10588933 0.02714125 0.10797195 -0.1106203
000320 b4 40 93 bd 00 aa 15 3a e0 7a d3 bd 10 26 8b bd
       -0.071900755 0.0005709231 -0.10326171 -0.06794369
000330 02 82 57 bd 18 e3 05 be 1e ce 95 3d 14 f2 c2 bd
       -0.05261422 -0.1307491 0.07314704 -0.09518829
000340 bf cc 08 be f6 a7 68 bd 98 79 91 3d 90 a0 39 bd
       -0.13359354 -0.056800805 0.0710327 -0.04531914
000350 b2 a4 e1 bd 26 f6 cb bd 00 fa ad ba 36 5b f8 3d
       -0.11017741 -0.099590585 -0.0013273358 0.12126772
000360 12 3b c6 3d 64 ce 4b bd 5f 52 07 3e ee 1c 6f bd
       0.096792355 -0.049757376 0.13215016 -0.0583772
000370 c8 bd ca 3d f6 a9 e4 3d dc b2 a9 bd 10 14 13 3d
       0.09899479 0.1116523 -0.08286068 0.035907805
000380 62 33 ff 3d 5a d2 f6 3d e8 f5 1e bd 80 66 2b 3d
       0.12460972 0.1205184 -0.038808733 0.0418458
000390 78 a0 1c 3d a7 c0 b6 bd ac a1 13 bd 96 97 07 be
       0.038238972 -0.08923464 -0.036042854 -0.13241419
0003a0 56 d8 be bd a5 f0 c4 bd 06 f1 3c bd 0b 91 fb bd
       -0.093186066 -0.09616212 -0.046128295 -0.12283524
0003b0 f7 3f e6 bd ac 85 ce bd 24 91 af bd f6 b5 54 bd
       -0.11242669 -0.1008409 -0.08572605 -0.051931344
0003c0 1e 99 01 be 5d dd 0e be 24 8a d8 3d 8a c8 b6 bd
       -0.12656066 -0.13951631 0.10573223 -0.089249685
0003d0 8a 09 8e 3d 8a 74 e1 3d 00 7f 65 bc 52 4c fd bd
       0.06935413 0.11008556 -0.01400733 -0.123680726
0003e0 ef 07 01 be e0 80 31 3c 8c 44 eb bd 32 1f a5 bd
       -0.12600683 0.010833949 -0.11487684 -0.08062591
0003f0 81 29 e8 bd 01 37 a7 bd ce c9 44 bd 4b 70 dc 3d
       -0.11336041 -0.08164788 -0.04804402 0.10763606

bias f4 [50]
000000 34 da 0d bd 22 67 46 3d 02 5e e3 bd 6c 3f ff 3d
       -0.034631923 0.0484382 -0.11101915 0.12463269
000010 68 29 eb bc c5 f5 17 be 41 c8 17 be 66 e0 3a 3d
       -0.028706267 -0.14839847 -0.14822485 0.04562416
000020 f7 7c 8b bc b8 7b b6 bd eb 5d ae bd a8 aa fd bd
       -0.017027361 -0.08910316 -0.08514007 -0.12386066
000030 54 52 0b be c7 a9 fa bd 20 51 dd 3d 94 af b7 3d
       -0.13605624 -0.12239414 0.10806489 0.08969036
000040 07 70 3b 3d 64 08 40 3d 10 88 bf bc a1 64 c1 3d
       0.045761134 0.046883002 -0.02338031 0.094430216
000050 4e fa 8a bd 16 12 00 be c0 aa cb 3d 50 0d 08 bc
       -0.06786023 -0.12506899 0.09944677 -0.008303955
000060 c5 5d 1d bd 03 f5 ef 3d c3 fa 53 bd 96 3b c7 bd
       -0.038419504 0.11716654 -0.051752817 -0.09728162
000070 be 90 b8 3d a4 93 bf bd fc 9c 5f bd 6b c9 41 bd
       0.090119824 -0.09354332 -0.05459307 -0.047311228
000080 d6 9c 56 bd 80 a2 5f bd e9 45 03 be 36 c0 8c 3d
       -0.052395664 -0.05459833 -0.12819637 0.06872599
000090 b4 52 99 bd 54 44 82 bc b5 32 02 be 0f 07 f1 bd
       -0.074864775 -0.015901722 -0.12714656 -0.117689244
0000a0 ec 7d a8 3b 1c 93 6a bd 09 2d 91 bd 5a 4e d3 3d
       0.005141964 -0.0572692 -0.07088668 0.10317679
0000b0 82 4f 46 bd c8 dd b2 bd 0c 5b f8 bd 3e 6f db bc
       -0.04841567 -0.08733708 -0.12126741 -0.026786443
0000c0 6a d7 6a 3d c5 71 0d 3e
       0.05733434 0.13812931

weight f4 [3, 50]
000000 a7 60 05 be cb 90 80 ba e4 7c 0d 3e d9 c0 fc bd
       -0.13025151 -0.0009808777 0.13817173 -0.1234147
000010 7d af d5 bd ff c4 57 bd 56 a8 23 3d 1a 46 81 3c
       -0.10433862 -0.052678104 0.03995546 0.015780497
000020 82 f6 0c 3e 80 c5 6c bb 65 b4 ee bd 08 7e 06 3d
       0.1376591 -0.0036128461 -0.11655501 0.032835037
000030 7a 67 db 3d f4 97 b0 bd e1 72 f6 bd 25 d2 7a bd
       0.10713096 -0.08622733 -0.1203363 -0.061235566
000040 54 74 8d 3c 11 c9 f2 3d 80 3d b7 bd 78 3b 95 bd
       0.017267384 0.118547566 -0.08947277 -0.072867334
000050 9d 9d 39 3d 89 3d b1 3d 7d c9 16 bd 10 9e a5 bd
       0.045316327 0.08654315 -0.036813248 -0.08086789
000060 54 4a a5 3d 0b bd 1e bd 21 b0 98 bd 16 ea 7a 3c
       0.080708176 -0.038754504 -0.07455469 0.0153145995
000070 bd ac b7 bd ab 2b 05 3e cf 19 0c 3e f3 e4 ed bd
       -0.08968494 0.1300494 0.1368172 -0.11615934
000080 32 fb 90 3d 5a 54 87 3d b4 7e c0 bd fe d9 14 3e
       0.07079162 0.06607886 -0.09399167 0.14536282
000090 0c e4 5d 3d 63 15 ab 3a 8a 78 fc bd 2c 0f 5d bd
       0.05417256 0.0013052638 -0.123276785 -0.053969547
0000a0 9a a4 d7 3d 35 17 a3 bd 70 04 0d be f6 3b 03 be
       0.10529442 -0.07963411 -0.13771224 -0.12815842
0000b0 00 95 53 3c 2e 5d e8 bc ad 2e bf 3d 98 7a f3 3d
       0.012913942 -0.028364744 0.093350746 0.11888617
0000c0 fe 66 a5 3c 42 6b ab 3d 1f b5 0a bd 5a e3 25 3e
       0.020190712 0.08370067 -0.033864137 0.16200009
0000d0 49 ae d9 bd c2 8b 9c 3d bd b3 05 3e 28 94 ac 3d
       -0.106289454 0.07643844 0.13056846 0.08426696
0000e0 81 ff 01 3e 8f 6a f1 bd a0 2f 13 be aa c0 10 3d
       0.12695123 -0.117879026 -0.14373636 0.03533999
0000f0 2c e6 48 3e 74 58 8d 3d 12 77 f2 3d 7c 5b 79 bd
       0.19619054 0.06901637 0.11839117 -0.060878262
000100 ce b4 aa 3d 88 e7 a0 bd de 9b b2 bd 56 b8 f3 3d
       0.08335267 -0.07856661 -0.087211356 0.11900394
000110 40 19 cc 3b 61 4d 95 3d 96 9e 63 3d 30 ee a9 bb
       0.006228596 0.072901495 0.05557116 -0.005185865
000120 5a a4 f1 bd 76 d8 eb 3d 1f af e8 3d 5b cc 04 3d
       -0.11798926 0.11515896 0.11361527 0.03242145
000130 5f c7 4e bd d2 22 87 3d b5 08 b9 bd 53 98 68 bd
       -0.050483104 0.06598438 -0.09034864 -0.056785893
000140 d7 36 aa bb 28 10 9b 3d 40 c8 a0 3c 02 93 04 be
       -0.0051945257 0.07571441 0.019626737 -0.12946704
000150 a4 2a 04 be 0e 66 de 3d a8 9d c8 bc e5 89 9e 3d
       -0.12906891 0.10859309 -0.024489239 0.07741145
000160 1a fa 9c bd 0f e9 01 be 5c 60 71 bd 49 a8 00 3e
       -0.076648906 -0.12686561 -0.058929786 0.12564196
000170 73 7a 84 3d c7 df 13 3d e0 e5 51 bc 6f 43 e6 bd
       0.06468668 0.036102083 -0.012811154 -0.11243331
000180 5c b5 1e 3e 3e 33 d4 bd 37 ff 0a 3c 3f dc 05 3e
       0.1549887 -0.10361336 0.0084836995 0.13072298
000190 29 5d 1c 3d bb 68 b9 bc 24 65 a0 bd f2 89 0a 3e
       0.038174782 -0.022632947 -0.07831791 0.13529184
0001a0 04 de d0 3d 67 fc c1 3d 4e 50 77 3c d6 f2 06 be
       0.10198596 0.0947197 0.01509483 -0.13178572
0001b0 6d 05 87 bd 76 d1 48 bd 49 89 26 be 54 8a a1 bc
       -0.06592832 -0.049027883 -0.16263308 -0.01971928
0001c0 20 13 c0 3b 62 46 a8 bd 25 da 4c bd d6 13 ec 3d
       0.005861655 -0.082165495 -0.050012726 0.11527221
0001d0 07 c3 02 3d 19 f3 9f 3d 9c 53 9b 3d 95 0d 65 3d
       0.031924274 0.07810039 0.075843066 0.055921156
0001e0 e4 a9 a1 bd dd 30 fb bd 30 dd 48 3b d0 01 00 bc
       -0.07893732 -0.12265179 0.0030649416 -0.007812932
0001f0 9a 26 1c 3d b5 1f 03 3b 27 33 73 3d 86 4f 23 be
       0.03812275 0.0020007913 0.059374955 -0.15948305
000200 c9 73 92 bd e3 fa 7a 3a ac cc d9 3d 6b ff 9d 3d
       -0.071509905 0.0009574128 0.10634741 0.07714733
000210 cc 12 53 3d f0 3d 2f bc b7 ba 21 bd 63 06 f3 3c
       0.051531598 -0.010695919 -0.039484706 0.029666131
000220 06 31 00 bd e4 08 d4 bd 38 12 cc 3d f2 27 95 bd
       -0.031296752 -0.10353258 0.099644125 -0.072830096
000230 06 05 96 3d 12 90 f8 bd bc c6 5b 3d 30 f9 04 3e
       0.07325177 -0.12136854 0.053656325 0.12985682
000240 54 2f 3b 3d 19 b8 07 be 0f b5 8b 3d 99 81 e5 3c
       0.045699432 -0.13253821 0.068216436 0.028015899
000250 ea 2c ca 3d c2 b3 0c bd
       0.09871848 -0.034351118

bias f4 [3]
000000 98 f7 8a 3c cd 5d 82 bd a8 3e 85 3d
       0.016963765 -0.06365547 0.06506091
